…
INFO - 06/03/22 12:44:33 - 0:00:02 - Monolingual data   - valid -           de:      3000
INFO - 06/03/22 12:44:33 - 0:00:02 - Monolingual data   -  test -           de:      2999
INFO - 06/03/22 12:44:33 - 0:00:02 - Monolingual data   - valid -           en:      3000
INFO - 06/03/22 12:44:33 - 0:00:02 - Monolingual data   -  test -           en:      2999
INFO - 06/03/22 12:44:33 - 0:00:02 - Parallel data      - valid -        de-en:      3000
INFO - 06/03/22 12:44:33 - 0:00:02 - Parallel data      -  test -        de-en:      2999

DEBUG - 06/03/22 12:44:39 - 0:00:08 - Encoder: TransformerModel(
                                        (position_embeddings): Embedding(512, 1024)
                                        (lang_embeddings): Embedding(2, 1024)
                                        (embeddings): Embedding(60408, 1024, padding_idx=2)
                                        (layer_norm_emb): LayerNorm((1024,), eps=1e-12, elementwise_affine=True)
                                        (attentions): ModuleList(
                                          (0): MultiHeadAttention(
                                            (q_lin): Linear(in_features=1024, out_features=1024, bias=True)
                                            (k_lin): Linear(in_features=1024, out_features=1024, bias=True)
                                            (v_lin): Linear(in_features=1024, out_features=1024, bias=True)
                                            (out_lin): Linear(in_features=1024, out_features=1024, bias=True)
                                          )
                                          (1): MultiHeadAttention(
                                            (q_lin): Linear(in_features=1024, out_features=1024, bias=True)
                                            (k_lin): Linear(in_features=1024, out_features=1024, bias=True)
                                            (v_lin): Linear(in_features=1024, out_features=1024, bias=True)
                                            (out_lin): Linear(in_features=1024, out_features=1024, bias=True)
                                          )
                                          (2): MultiHeadAttention(
                                            (q_lin): Linear(in_features=1024, out_features=1024, bias=True)
                                            (k_lin): Linear(in_features=1024, out_features=1024, bias=True)
                                            (v_lin): Linear(in_features=1024, out_features=1024, bias=True)
                                            (out_lin): Linear(in_features=1024, out_features=1024, bias=True)
                                          )
                                          (3): MultiHeadAttention(
                                            (q_lin): Linear(in_features=1024, out_features=1024, bias=True)
                                            (k_lin): Linear(in_features=1024, out_features=1024, bias=True)
                                            (v_lin): Linear(in_features=1024, out_features=1024, bias=True)
                                            (out_lin): Linear(in_features=1024, out_features=1024, bias=True)
                                          )
                                          (4): MultiHeadAttention(
                                            (q_lin): Linear(in_features=1024, out_features=1024, bias=True)
                                            (k_lin): Linear(in_features=1024, out_features=1024, bias=True)
                                            (v_lin): Linear(in_features=1024, out_features=1024, bias=True)
                                            (out_lin): Linear(in_features=1024, out_features=1024, bias=True)
                                          )
                                          (5): MultiHeadAttention(
                                            (q_lin): Linear(in_features=1024, out_features=1024, bias=True)
                                            (k_lin): Linear(in_features=1024, out_features=1024, bias=True)
                                            (v_lin): Linear(in_features=1024, out_features=1024, bias=True)
                                            (out_lin): Linear(in_features=1024, out_features=1024, bias=True)
                                          )
                                        )
                                        (layer_norm1): ModuleList(
                                          (0): LayerNorm((1024,), eps=1e-12, elementwise_affine=True)
                                          (1): LayerNorm((1024,), eps=1e-12, elementwise_affine=True)
                                          (2): LayerNorm((1024,), eps=1e-12, elementwise_affine=True)
                                          (3): LayerNorm((1024,), eps=1e-12, elementwise_affine=True)
                                          (4): LayerNorm((1024,), eps=1e-12, elementwise_affine=True)
                                          (5): LayerNorm((1024,), eps=1e-12, elementwise_affine=True)
                                        )
                                        (ffns): ModuleList(
                                          (0): TransformerFFN(
                                            (lin1): Linear(in_features=1024, out_features=4096, bias=True)
                                            (lin2): Linear(in_features=4096, out_features=1024, bias=True)
                                          )
                                          (1): TransformerFFN(
                                            (lin1): Linear(in_features=1024, out_features=4096, bias=True)
                                            (lin2): Linear(in_features=4096, out_features=1024, bias=True)
                                          )
                                          (2): TransformerFFN(
                                            (lin1): Linear(in_features=1024, out_features=4096, bias=True)
                                            (lin2): Linear(in_features=4096, out_features=1024, bias=True)
                                          )
                                          (3): TransformerFFN(
                                            (lin1): Linear(in_features=1024, out_features=4096, bias=True)
                                            (lin2): Linear(in_features=4096, out_features=1024, bias=True)
                                          )
                                          (4): TransformerFFN(
                                            (lin1): Linear(in_features=1024, out_features=4096, bias=True)
                                            (lin2): Linear(in_features=4096, out_features=1024, bias=True)
                                          )
                                          (5): TransformerFFN(
                                            (lin1): Linear(in_features=1024, out_features=4096, bias=True)
                                            (lin2): Linear(in_features=4096, out_features=1024, bias=True)
                                          )
                                        )
                                        (layer_norm2): ModuleList(
                                          (0): LayerNorm((1024,), eps=1e-12, elementwise_affine=True)
                                          (1): LayerNorm((1024,), eps=1e-12, elementwise_affine=True)
                                          (2): LayerNorm((1024,), eps=1e-12, elementwise_affine=True)
                                          (3): LayerNorm((1024,), eps=1e-12, elementwise_affine=True)
                                          (4): LayerNorm((1024,), eps=1e-12, elementwise_affine=True)
                                          (5): LayerNorm((1024,), eps=1e-12, elementwise_affine=True)
                                        )
                                        (pred_layer): PredLayer(
                                          (proj): Linear(in_features=1024, out_features=60408, bias=True)
                                        )
                                      )
DEBUG - 06/03/22 12:44:39 - 0:00:08 - Decoder: TransformerModel(
                                        (position_embeddings): Embedding(512, 1024)
                                        (lang_embeddings): Embedding(2, 1024)
                                        (embeddings): Embedding(60408, 1024, padding_idx=2)
                                        (layer_norm_emb): LayerNorm((1024,), eps=1e-12, elementwise_affine=True)
                                        (attentions): ModuleList(
                                          (0): MultiHeadAttention(
                                            (q_lin): Linear(in_features=1024, out_features=1024, bias=True)
                                            (k_lin): Linear(in_features=1024, out_features=1024, bias=True)
                                            (v_lin): Linear(in_features=1024, out_features=1024, bias=True)
                                            (out_lin): Linear(in_features=1024, out_features=1024, bias=True)
                                          )
                                          (1): MultiHeadAttention(
                                            (q_lin): Linear(in_features=1024, out_features=1024, bias=True)
                                            (k_lin): Linear(in_features=1024, out_features=1024, bias=True)
                                            (v_lin): Linear(in_features=1024, out_features=1024, bias=True)
                                            (out_lin): Linear(in_features=1024, out_features=1024, bias=True)
                                          )
                                          (2): MultiHeadAttention(
                                            (q_lin): Linear(in_features=1024, out_features=1024, bias=True)
                                            (k_lin): Linear(in_features=1024, out_features=1024, bias=True)
                                            (v_lin): Linear(in_features=1024, out_features=1024, bias=True)
                                            (out_lin): Linear(in_features=1024, out_features=1024, bias=True)
                                          )
                                          (3): MultiHeadAttention(
                                            (q_lin): Linear(in_features=1024, out_features=1024, bias=True)
                                            (k_lin): Linear(in_features=1024, out_features=1024, bias=True)
                                            (v_lin): Linear(in_features=1024, out_features=1024, bias=True)
                                            (out_lin): Linear(in_features=1024, out_features=1024, bias=True)
                                          )
                                          (4): MultiHeadAttention(
                                            (q_lin): Linear(in_features=1024, out_features=1024, bias=True)
                                            (k_lin): Linear(in_features=1024, out_features=1024, bias=True)
                                            (v_lin): Linear(in_features=1024, out_features=1024, bias=True)
                                            (out_lin): Linear(in_features=1024, out_features=1024, bias=True)
                                          )
                                          (5): MultiHeadAttention(
                                            (q_lin): Linear(in_features=1024, out_features=1024, bias=True)
                                            (k_lin): Linear(in_features=1024, out_features=1024, bias=True)
                                            (v_lin): Linear(in_features=1024, out_features=1024, bias=True)
                                            (out_lin): Linear(in_features=1024, out_features=1024, bias=True)
                                          )
                                        )
                                        (layer_norm1): ModuleList(
                                          (0): LayerNorm((1024,), eps=1e-12, elementwise_affine=True)
                                          (1): LayerNorm((1024,), eps=1e-12, elementwise_affine=True)
                                          (2): LayerNorm((1024,), eps=1e-12, elementwise_affine=True)
                                          (3): LayerNorm((1024,), eps=1e-12, elementwise_affine=True)
                                          (4): LayerNorm((1024,), eps=1e-12, elementwise_affine=True)
                                          (5): LayerNorm((1024,), eps=1e-12, elementwise_affine=True)
                                        )
                                        (ffns): ModuleList(
                                          (0): TransformerFFN(
                                            (lin1): Linear(in_features=1024, out_features=4096, bias=True)
                                            (lin2): Linear(in_features=4096, out_features=1024, bias=True)
                                          )
                                          (1): TransformerFFN(
                                            (lin1): Linear(in_features=1024, out_features=4096, bias=True)
                                            (lin2): Linear(in_features=4096, out_features=1024, bias=True)
                                          )
                                          (2): TransformerFFN(
                                            (lin1): Linear(in_features=1024, out_features=4096, bias=True)
                                            (lin2): Linear(in_features=4096, out_features=1024, bias=True)
                                          )
                                          (3): TransformerFFN(
                                            (lin1): Linear(in_features=1024, out_features=4096, bias=True)
                                            (lin2): Linear(in_features=4096, out_features=1024, bias=True)
                                          )
                                          (4): TransformerFFN(
                                            (lin1): Linear(in_features=1024, out_features=4096, bias=True)
                                            (lin2): Linear(in_features=4096, out_features=1024, bias=True)
                                          )
                                          (5): TransformerFFN(
                                            (lin1): Linear(in_features=1024, out_features=4096, bias=True)
                                            (lin2): Linear(in_features=4096, out_features=1024, bias=True)
                                          )
                                        )
                                        (layer_norm2): ModuleList(
                                          (0): LayerNorm((1024,), eps=1e-12, elementwise_affine=True)
                                          (1): LayerNorm((1024,), eps=1e-12, elementwise_affine=True)
                                          (2): LayerNorm((1024,), eps=1e-12, elementwise_affine=True)
                                          (3): LayerNorm((1024,), eps=1e-12, elementwise_affine=True)
                                          (4): LayerNorm((1024,), eps=1e-12, elementwise_affine=True)
                                          (5): LayerNorm((1024,), eps=1e-12, elementwise_affine=True)
                                        )
                                        (layer_norm15): ModuleList(
                                          (0): LayerNorm((1024,), eps=1e-12, elementwise_affine=True)
                                          (1): LayerNorm((1024,), eps=1e-12, elementwise_affine=True)
                                          (2): LayerNorm((1024,), eps=1e-12, elementwise_affine=True)
                                          (3): LayerNorm((1024,), eps=1e-12, elementwise_affine=True)
                                          (4): LayerNorm((1024,), eps=1e-12, elementwise_affine=True)
                                          (5): LayerNorm((1024,), eps=1e-12, elementwise_affine=True)
                                        )
                                        (encoder_attn): ModuleList(
                                          (0): MultiHeadAttention(
                                            (q_lin): Linear(in_features=1024, out_features=1024, bias=True)
                                            (k_lin): Linear(in_features=1024, out_features=1024, bias=True)
                                            (v_lin): Linear(in_features=1024, out_features=1024, bias=True)
                                            (out_lin): ModuleList(
                                              (0): Linear(in_features=1024, out_features=1024, bias=True)
                                              (1): Linear(in_features=1024, out_features=1024, bias=True)
                                            )
                                          )
                                          (1): MultiHeadAttention(
                                            (q_lin): Linear(in_features=1024, out_features=1024, bias=True)
                                            (k_lin): Linear(in_features=1024, out_features=1024, bias=True)
                                            (v_lin): Linear(in_features=1024, out_features=1024, bias=True)
                                            (out_lin): ModuleList(
                                              (0): Linear(in_features=1024, out_features=1024, bias=True)
                                              (1): Linear(in_features=1024, out_features=1024, bias=True)
                                            )
                                          )
                                          (2): MultiHeadAttention(
                                            (q_lin): Linear(in_features=1024, out_features=1024, bias=True)
                                            (k_lin): Linear(in_features=1024, out_features=1024, bias=True)
                                            (v_lin): Linear(in_features=1024, out_features=1024, bias=True)
                                            (out_lin): ModuleList(
                                              (0): Linear(in_features=1024, out_features=1024, bias=True)
                                              (1): Linear(in_features=1024, out_features=1024, bias=True)
                                            )
                                          )
                                          (3): MultiHeadAttention(
                                            (q_lin): Linear(in_features=1024, out_features=1024, bias=True)
                                            (k_lin): Linear(in_features=1024, out_features=1024, bias=True)
                                            (v_lin): Linear(in_features=1024, out_features=1024, bias=True)
                                            (out_lin): ModuleList(
                                              (0): Linear(in_features=1024, out_features=1024, bias=True)
                                              (1): Linear(in_features=1024, out_features=1024, bias=True)
                                            )
                                          )
                                          (4): MultiHeadAttention(
                                            (q_lin): Linear(in_features=1024, out_features=1024, bias=True)
                                            (k_lin): Linear(in_features=1024, out_features=1024, bias=True)
                                            (v_lin): Linear(in_features=1024, out_features=1024, bias=True)
                                            (out_lin): ModuleList(
                                              (0): Linear(in_features=1024, out_features=1024, bias=True)
                                              (1): Linear(in_features=1024, out_features=1024, bias=True)
                                            )
                                          )
                                          (5): MultiHeadAttention(
                                            (q_lin): Linear(in_features=1024, out_features=1024, bias=True)
                                            (k_lin): Linear(in_features=1024, out_features=1024, bias=True)
                                            (v_lin): Linear(in_features=1024, out_features=1024, bias=True)
                                            (out_lin): ModuleList(
                                              (0): Linear(in_features=1024, out_features=1024, bias=True)
                                              (1): Linear(in_features=1024, out_features=1024, bias=True)
                                            )
                                          )
                                        )
                                        (pred_layer): PredLayer(
                                          (proj): Linear(in_features=1024, out_features=60408, bias=True)
                                        )
                                      )
INFO - 06/03/22 12:44:39 - 0:00:08 - Number of parameters (encoder): 138023928
INFO - 06/03/22 12:44:39 - 0:00:08 - Number of parameters (decoder): 169524216
INFO - 06/03/22 13:57:13 - 0:00:00 - ============ Initialized logger ============
INFO - 06/03/22 13:57:13 - 0:00:00 - ae_steps: []
…
INFO - 06/08/22 10:23:36 - 0:00:02 - Monolingual data   -  test -           de:      2999
INFO - 06/08/22 10:23:36 - 0:00:02 - Monolingual data   - valid -           en:      3000
INFO - 06/08/22 10:23:36 - 0:00:02 - Monolingual data   -  test -           en:      2999
INFO - 06/08/22 10:23:36 - 0:00:02 - Parallel data      - valid -        de-en:      3000
INFO - 06/08/22 10:23:36 - 0:00:02 - Parallel data      -  test -        de-en:      2999

DEBUG - 06/08/22 10:26:55 - 0:03:21 - Encoder: TransformerModel(
                                        (softprompts): ModuleList(
                                          (0): Linear(in_features=1, out_features=1024, bias=True)
                                          (1): Linear(in_features=1, out_features=1024, bias=True)
                                          (2): Linear(in_features=1, out_features=1024, bias=True)
                                          (3): Linear(in_features=1, out_features=1024, bias=True)
                                          (4): Linear(in_features=1, out_features=1024, bias=True)
                                          (5): Linear(in_features=1, out_features=1024, bias=True)
                                          (6): Linear(in_features=1, out_features=1024, bias=True)
                                          (7): Linear(in_features=1, out_features=1024, bias=True)
                                          (8): Linear(in_features=1, out_features=1024, bias=True)
                                          (9): Linear(in_features=1, out_features=1024, bias=True)
                                          (10): Linear(in_features=1, out_features=1024, bias=True)
                                          (11): Linear(in_features=1, out_features=1024, bias=True)
                                          (12): Linear(in_features=1, out_features=1024, bias=True)
                                          (13): Linear(in_features=1, out_features=1024, bias=True)
                                          (14): Linear(in_features=1, out_features=1024, bias=True)
                                          (15): Linear(in_features=1, out_features=1024, bias=True)
                                          (16): Linear(in_features=1, out_features=1024, bias=True)
                                          (17): Linear(in_features=1, out_features=1024, bias=True)
                                          (18): Linear(in_features=1, out_features=1024, bias=True)
                                          (19): Linear(in_features=1, out_features=1024, bias=True)
                                          (20): Linear(in_features=1, out_features=1024, bias=True)
                                          (21): Linear(in_features=1, out_features=1024, bias=True)
                                          (22): Linear(in_features=1, out_features=1024, bias=True)
                                          (23): Linear(in_features=1, out_features=1024, bias=True)
                                          (24): Linear(in_features=1, out_features=1024, bias=True)
                                          (25): Linear(in_features=1, out_features=1024, bias=True)
                                          (26): Linear(in_features=1, out_features=1024, bias=True)
                                          (27): Linear(in_features=1, out_features=1024, bias=True)
                                          (28): Linear(in_features=1, out_features=1024, bias=True)
                                          (29): Linear(in_features=1, out_features=1024, bias=True)
                                          (30): Linear(in_features=1, out_features=1024, bias=True)
                                          (31): Linear(in_features=1, out_features=1024, bias=True)
                                          (32): Linear(in_features=1, out_features=1024, bias=True)
                                          (33): Linear(in_features=1, out_features=1024, bias=True)
                                          (34): Linear(in_features=1, out_features=1024, bias=True)
                                          (35): Linear(in_features=1, out_features=1024, bias=True)
                                          (36): Linear(in_features=1, out_features=1024, bias=True)
                                          (37): Linear(in_features=1, out_features=1024, bias=True)
                                          (38): Linear(in_features=1, out_features=1024, bias=True)
                                          (39): Linear(in_features=1, out_features=1024, bias=True)
                                          (40): Linear(in_features=1, out_features=1024, bias=True)
                                          (41): Linear(in_features=1, out_features=1024, bias=True)
                                          (42): Linear(in_features=1, out_features=1024, bias=True)
                                          (43): Linear(in_features=1, out_features=1024, bias=True)
                                          (44): Linear(in_features=1, out_features=1024, bias=True)
                                          (45): Linear(in_features=1, out_features=1024, bias=True)
                                          (46): Linear(in_features=1, out_features=1024, bias=True)
                                          (47): Linear(in_features=1, out_features=1024, bias=True)
                                          (48): Linear(in_features=1, out_features=1024, bias=True)
                                          (49): Linear(in_features=1, out_features=1024, bias=True)
                                          (50): Linear(in_features=1, out_features=1024, bias=True)
                                          (51): Linear(in_features=1, out_features=1024, bias=True)
                                          (52): Linear(in_features=1, out_features=1024, bias=True)
                                          (53): Linear(in_features=1, out_features=1024, bias=True)
                                          (54): Linear(in_features=1, out_features=1024, bias=True)
                                          (55): Linear(in_features=1, out_features=1024, bias=True)
                                          (56): Linear(in_features=1, out_features=1024, bias=True)
                                          (57): Linear(in_features=1, out_features=1024, bias=True)
                                          (58): Linear(in_features=1, out_features=1024, bias=True)
                                          (59): Linear(in_features=1, out_features=1024, bias=True)
                                          (60): Linear(in_features=1, out_features=1024, bias=True)
                                          (61): Linear(in_features=1, out_features=1024, bias=True)
                                          (62): Linear(in_features=1, out_features=1024, bias=True)
                                          (63): Linear(in_features=1, out_features=1024, bias=True)
                                        )
                                        (position_embeddings): Embedding(512, 1024)
                                        (lang_embeddings): Embedding(2, 1024)
                                        (embeddings): Embedding(60408, 1024, padding_idx=2)
                                        (layer_norm_emb): LayerNorm((1024,), eps=1e-12, elementwise_affine=True)
                                        (attentions): ModuleList(
                                          (0): MultiHeadAttention(
                                            (q_lin): Linear(in_features=1024, out_features=1024, bias=True)
                                            (k_lin): Linear(in_features=1024, out_features=1024, bias=True)
                                            (v_lin): Linear(in_features=1024, out_features=1024, bias=True)
                                            (out_lin): Linear(in_features=1024, out_features=1024, bias=True)
                                          )
                                          (1): MultiHeadAttention(
                                            (q_lin): Linear(in_features=1024, out_features=1024, bias=True)
                                            (k_lin): Linear(in_features=1024, out_features=1024, bias=True)
                                            (v_lin): Linear(in_features=1024, out_features=1024, bias=True)
                                            (out_lin): Linear(in_features=1024, out_features=1024, bias=True)
                                          )
                                          (2): MultiHeadAttention(
                                            (q_lin): Linear(in_features=1024, out_features=1024, bias=True)
                                            (k_lin): Linear(in_features=1024, out_features=1024, bias=True)
                                            (v_lin): Linear(in_features=1024, out_features=1024, bias=True)
                                            (out_lin): Linear(in_features=1024, out_features=1024, bias=True)
                                          )
                                          (3): MultiHeadAttention(
                                            (q_lin): Linear(in_features=1024, out_features=1024, bias=True)
                                            (k_lin): Linear(in_features=1024, out_features=1024, bias=True)
                                            (v_lin): Linear(in_features=1024, out_features=1024, bias=True)
                                            (out_lin): Linear(in_features=1024, out_features=1024, bias=True)
                                          )
                                          (4): MultiHeadAttention(
                                            (q_lin): Linear(in_features=1024, out_features=1024, bias=True)
                                            (k_lin): Linear(in_features=1024, out_features=1024, bias=True)
                                            (v_lin): Linear(in_features=1024, out_features=1024, bias=True)
                                            (out_lin): Linear(in_features=1024, out_features=1024, bias=True)
                                          )
                                          (5): MultiHeadAttention(
                                            (q_lin): Linear(in_features=1024, out_features=1024, bias=True)
                                            (k_lin): Linear(in_features=1024, out_features=1024, bias=True)
                                            (v_lin): Linear(in_features=1024, out_features=1024, bias=True)
                                            (out_lin): Linear(in_features=1024, out_features=1024, bias=True)
                                          )
                                        )
                                        (layer_norm1): ModuleList(
                                          (0): LayerNorm((1024,), eps=1e-12, elementwise_affine=True)
                                          (1): LayerNorm((1024,), eps=1e-12, elementwise_affine=True)
                                          (2): LayerNorm((1024,), eps=1e-12, elementwise_affine=True)
                                          (3): LayerNorm((1024,), eps=1e-12, elementwise_affine=True)
                                          (4): LayerNorm((1024,), eps=1e-12, elementwise_affine=True)
                                          (5): LayerNorm((1024,), eps=1e-12, elementwise_affine=True)
                                        )
                                        (ffns): ModuleList(
                                          (0): TransformerFFN(
                                            (lin1): Linear(in_features=1024, out_features=4096, bias=True)
                                            (lin2): Linear(in_features=4096, out_features=1024, bias=True)
                                          )
                                          (1): TransformerFFN(
                                            (lin1): Linear(in_features=1024, out_features=4096, bias=True)
                                            (lin2): Linear(in_features=4096, out_features=1024, bias=True)
                                          )
                                          (2): TransformerFFN(
                                            (lin1): Linear(in_features=1024, out_features=4096, bias=True)
                                            (lin2): Linear(in_features=4096, out_features=1024, bias=True)
                                          )
                                          (3): TransformerFFN(
                                            (lin1): Linear(in_features=1024, out_features=4096, bias=True)
                                            (lin2): Linear(in_features=4096, out_features=1024, bias=True)
                                          )
                                          (4): TransformerFFN(
                                            (lin1): Linear(in_features=1024, out_features=4096, bias=True)
                                            (lin2): Linear(in_features=4096, out_features=1024, bias=True)
                                          )
                                          (5): TransformerFFN(
                                            (lin1): Linear(in_features=1024, out_features=4096, bias=True)
                                            (lin2): Linear(in_features=4096, out_features=1024, bias=True)
                                          )
                                        )
                                        (layer_norm2): ModuleList(
                                          (0): LayerNorm((1024,), eps=1e-12, elementwise_affine=True)
                                          (1): LayerNorm((1024,), eps=1e-12, elementwise_affine=True)
                                          (2): LayerNorm((1024,), eps=1e-12, elementwise_affine=True)
                                          (3): LayerNorm((1024,), eps=1e-12, elementwise_affine=True)
                                          (4): LayerNorm((1024,), eps=1e-12, elementwise_affine=True)
                                          (5): LayerNorm((1024,), eps=1e-12, elementwise_affine=True)
                                        )
                                        (pred_layer): PredLayer(
                                          (proj): Linear(in_features=1024, out_features=60408, bias=True)
                                        )
                                      )
DEBUG - 06/08/22 10:26:55 - 0:03:21 - Decoder: TransformerModel(
                                        (softprompts): ModuleList(
                                          (0): Linear(in_features=1, out_features=1024, bias=True)
                                          (1): Linear(in_features=1, out_features=1024, bias=True)
                                          (2): Linear(in_features=1, out_features=1024, bias=True)
                                          (3): Linear(in_features=1, out_features=1024, bias=True)
                                          (4): Linear(in_features=1, out_features=1024, bias=True)
                                          (5): Linear(in_features=1, out_features=1024, bias=True)
                                          (6): Linear(in_features=1, out_features=1024, bias=True)
                                          (7): Linear(in_features=1, out_features=1024, bias=True)
                                          (8): Linear(in_features=1, out_features=1024, bias=True)
                                          (9): Linear(in_features=1, out_features=1024, bias=True)
                                          (10): Linear(in_features=1, out_features=1024, bias=True)
                                          (11): Linear(in_features=1, out_features=1024, bias=True)
                                          (12): Linear(in_features=1, out_features=1024, bias=True)
                                          (13): Linear(in_features=1, out_features=1024, bias=True)
                                          (14): Linear(in_features=1, out_features=1024, bias=True)
                                          (15): Linear(in_features=1, out_features=1024, bias=True)
                                          (16): Linear(in_features=1, out_features=1024, bias=True)
                                          (17): Linear(in_features=1, out_features=1024, bias=True)
                                          (18): Linear(in_features=1, out_features=1024, bias=True)
                                          (19): Linear(in_features=1, out_features=1024, bias=True)
                                          (20): Linear(in_features=1, out_features=1024, bias=True)
                                          (21): Linear(in_features=1, out_features=1024, bias=True)
                                          (22): Linear(in_features=1, out_features=1024, bias=True)
                                          (23): Linear(in_features=1, out_features=1024, bias=True)
                                          (24): Linear(in_features=1, out_features=1024, bias=True)
                                          (25): Linear(in_features=1, out_features=1024, bias=True)
                                          (26): Linear(in_features=1, out_features=1024, bias=True)
                                          (27): Linear(in_features=1, out_features=1024, bias=True)
                                          (28): Linear(in_features=1, out_features=1024, bias=True)
                                          (29): Linear(in_features=1, out_features=1024, bias=True)
                                          (30): Linear(in_features=1, out_features=1024, bias=True)
                                          (31): Linear(in_features=1, out_features=1024, bias=True)
                                          (32): Linear(in_features=1, out_features=1024, bias=True)
                                          (33): Linear(in_features=1, out_features=1024, bias=True)
                                          (34): Linear(in_features=1, out_features=1024, bias=True)
                                          (35): Linear(in_features=1, out_features=1024, bias=True)
                                          (36): Linear(in_features=1, out_features=1024, bias=True)
                                          (37): Linear(in_features=1, out_features=1024, bias=True)
                                          (38): Linear(in_features=1, out_features=1024, bias=True)
                                          (39): Linear(in_features=1, out_features=1024, bias=True)
                                          (40): Linear(in_features=1, out_features=1024, bias=True)
                                          (41): Linear(in_features=1, out_features=1024, bias=True)
                                          (42): Linear(in_features=1, out_features=1024, bias=True)
                                          (43): Linear(in_features=1, out_features=1024, bias=True)
                                          (44): Linear(in_features=1, out_features=1024, bias=True)
                                          (45): Linear(in_features=1, out_features=1024, bias=True)
                                          (46): Linear(in_features=1, out_features=1024, bias=True)
                                          (47): Linear(in_features=1, out_features=1024, bias=True)
                                          (48): Linear(in_features=1, out_features=1024, bias=True)
                                          (49): Linear(in_features=1, out_features=1024, bias=True)
                                          (50): Linear(in_features=1, out_features=1024, bias=True)
                                          (51): Linear(in_features=1, out_features=1024, bias=True)
                                          (52): Linear(in_features=1, out_features=1024, bias=True)
                                          (53): Linear(in_features=1, out_features=1024, bias=True)
                                          (54): Linear(in_features=1, out_features=1024, bias=True)
                                          (55): Linear(in_features=1, out_features=1024, bias=True)
                                          (56): Linear(in_features=1, out_features=1024, bias=True)
                                          (57): Linear(in_features=1, out_features=1024, bias=True)
                                          (58): Linear(in_features=1, out_features=1024, bias=True)
                                          (59): Linear(in_features=1, out_features=1024, bias=True)
                                          (60): Linear(in_features=1, out_features=1024, bias=True)
                                          (61): Linear(in_features=1, out_features=1024, bias=True)
                                          (62): Linear(in_features=1, out_features=1024, bias=True)
                                          (63): Linear(in_features=1, out_features=1024, bias=True)
                                        )
                                        (position_embeddings): Embedding(512, 1024)
                                        (lang_embeddings): Embedding(2, 1024)
                                        (embeddings): Embedding(60408, 1024, padding_idx=2)
                                        (layer_norm_emb): LayerNorm((1024,), eps=1e-12, elementwise_affine=True)
                                        (attentions): ModuleList(
                                          (0): MultiHeadAttention(
                                            (q_lin): Linear(in_features=1024, out_features=1024, bias=True)
                                            (k_lin): Linear(in_features=1024, out_features=1024, bias=True)
                                            (v_lin): Linear(in_features=1024, out_features=1024, bias=True)
                                            (out_lin): Linear(in_features=1024, out_features=1024, bias=True)
                                          )
                                          (1): MultiHeadAttention(
                                            (q_lin): Linear(in_features=1024, out_features=1024, bias=True)
                                            (k_lin): Linear(in_features=1024, out_features=1024, bias=True)
                                            (v_lin): Linear(in_features=1024, out_features=1024, bias=True)
                                            (out_lin): Linear(in_features=1024, out_features=1024, bias=True)
                                          )
                                          (2): MultiHeadAttention(
                                            (q_lin): Linear(in_features=1024, out_features=1024, bias=True)
                                            (k_lin): Linear(in_features=1024, out_features=1024, bias=True)
                                            (v_lin): Linear(in_features=1024, out_features=1024, bias=True)
                                            (out_lin): Linear(in_features=1024, out_features=1024, bias=True)
                                          )
                                          (3): MultiHeadAttention(
                                            (q_lin): Linear(in_features=1024, out_features=1024, bias=True)
                                            (k_lin): Linear(in_features=1024, out_features=1024, bias=True)
                                            (v_lin): Linear(in_features=1024, out_features=1024, bias=True)
                                            (out_lin): Linear(in_features=1024, out_features=1024, bias=True)
                                          )
                                          (4): MultiHeadAttention(
                                            (q_lin): Linear(in_features=1024, out_features=1024, bias=True)
                                            (k_lin): Linear(in_features=1024, out_features=1024, bias=True)
                                            (v_lin): Linear(in_features=1024, out_features=1024, bias=True)
                                            (out_lin): Linear(in_features=1024, out_features=1024, bias=True)
                                          )
                                          (5): MultiHeadAttention(
                                            (q_lin): Linear(in_features=1024, out_features=1024, bias=True)
                                            (k_lin): Linear(in_features=1024, out_features=1024, bias=True)
                                            (v_lin): Linear(in_features=1024, out_features=1024, bias=True)
                                            (out_lin): Linear(in_features=1024, out_features=1024, bias=True)
                                          )
                                        )
                                        (layer_norm1): ModuleList(
                                          (0): LayerNorm((1024,), eps=1e-12, elementwise_affine=True)
                                          (1): LayerNorm((1024,), eps=1e-12, elementwise_affine=True)
                                          (2): LayerNorm((1024,), eps=1e-12, elementwise_affine=True)
                                          (3): LayerNorm((1024,), eps=1e-12, elementwise_affine=True)
                                          (4): LayerNorm((1024,), eps=1e-12, elementwise_affine=True)
                                          (5): LayerNorm((1024,), eps=1e-12, elementwise_affine=True)
                                        )
                                        (ffns): ModuleList(
                                          (0): TransformerFFN(
                                            (lin1): Linear(in_features=1024, out_features=4096, bias=True)
                                            (lin2): Linear(in_features=4096, out_features=1024, bias=True)
                                          )
                                          (1): TransformerFFN(
                                            (lin1): Linear(in_features=1024, out_features=4096, bias=True)
                                            (lin2): Linear(in_features=4096, out_features=1024, bias=True)
                                          )
                                          (2): TransformerFFN(
                                            (lin1): Linear(in_features=1024, out_features=4096, bias=True)
                                            (lin2): Linear(in_features=4096, out_features=1024, bias=True)
                                          )
                                          (3): TransformerFFN(
                                            (lin1): Linear(in_features=1024, out_features=4096, bias=True)
                                            (lin2): Linear(in_features=4096, out_features=1024, bias=True)
                                          )
                                          (4): TransformerFFN(
                                            (lin1): Linear(in_features=1024, out_features=4096, bias=True)
                                            (lin2): Linear(in_features=4096, out_features=1024, bias=True)
                                          )
                                          (5): TransformerFFN(
                                            (lin1): Linear(in_features=1024, out_features=4096, bias=True)
                                            (lin2): Linear(in_features=4096, out_features=1024, bias=True)
                                          )
                                        )
                                        (layer_norm2): ModuleList(
                                          (0): LayerNorm((1024,), eps=1e-12, elementwise_affine=True)
                                          (1): LayerNorm((1024,), eps=1e-12, elementwise_affine=True)
                                          (2): LayerNorm((1024,), eps=1e-12, elementwise_affine=True)
                                          (3): LayerNorm((1024,), eps=1e-12, elementwise_affine=True)
                                          (4): LayerNorm((1024,), eps=1e-12, elementwise_affine=True)
                                          (5): LayerNorm((1024,), eps=1e-12, elementwise_affine=True)
                                        )
                                        (layer_norm15): ModuleList(
                                          (0): LayerNorm((1024,), eps=1e-12, elementwise_affine=True)
                                          (1): LayerNorm((1024,), eps=1e-12, elementwise_affine=True)
                                          (2): LayerNorm((1024,), eps=1e-12, elementwise_affine=True)
                                          (3): LayerNorm((1024,), eps=1e-12, elementwise_affine=True)
                                          (4): LayerNorm((1024,), eps=1e-12, elementwise_affine=True)
                                          (5): LayerNorm((1024,), eps=1e-12, elementwise_affine=True)
                                        )
                                        (encoder_attn): ModuleList(
                                          (0): MultiHeadAttention(
                                            (q_lin): Linear(in_features=1024, out_features=1024, bias=True)
                                            (k_lin): Linear(in_features=1024, out_features=1024, bias=True)
                                            (v_lin): Linear(in_features=1024, out_features=1024, bias=True)
                                            (out_lin): ModuleList(
                                              (0): Linear(in_features=1024, out_features=1024, bias=True)
                                              (1): Linear(in_features=1024, out_features=1024, bias=True)
                                            )
                                          )
                                          (1): MultiHeadAttention(
                                            (q_lin): Linear(in_features=1024, out_features=1024, bias=True)
                                            (k_lin): Linear(in_features=1024, out_features=1024, bias=True)
                                            (v_lin): Linear(in_features=1024, out_features=1024, bias=True)
                                            (out_lin): ModuleList(
                                              (0): Linear(in_features=1024, out_features=1024, bias=True)
                                              (1): Linear(in_features=1024, out_features=1024, bias=True)
                                            )
                                          )
                                          (2): MultiHeadAttention(
                                            (q_lin): Linear(in_features=1024, out_features=1024, bias=True)
                                            (k_lin): Linear(in_features=1024, out_features=1024, bias=True)
                                            (v_lin): Linear(in_features=1024, out_features=1024, bias=True)
                                            (out_lin): ModuleList(
                                              (0): Linear(in_features=1024, out_features=1024, bias=True)
                                              (1): Linear(in_features=1024, out_features=1024, bias=True)
                                            )
                                          )
                                          (3): MultiHeadAttention(
                                            (q_lin): Linear(in_features=1024, out_features=1024, bias=True)
                                            (k_lin): Linear(in_features=1024, out_features=1024, bias=True)
                                            (v_lin): Linear(in_features=1024, out_features=1024, bias=True)
                                            (out_lin): ModuleList(
                                              (0): Linear(in_features=1024, out_features=1024, bias=True)
                                              (1): Linear(in_features=1024, out_features=1024, bias=True)
                                            )
                                          )
                                          (4): MultiHeadAttention(
                                            (q_lin): Linear(in_features=1024, out_features=1024, bias=True)
                                            (k_lin): Linear(in_features=1024, out_features=1024, bias=True)
                                            (v_lin): Linear(in_features=1024, out_features=1024, bias=True)
                                            (out_lin): ModuleList(
                                              (0): Linear(in_features=1024, out_features=1024, bias=True)
                                              (1): Linear(in_features=1024, out_features=1024, bias=True)
                                            )
                                          )
                                          (5): MultiHeadAttention(
                                            (q_lin): Linear(in_features=1024, out_features=1024, bias=True)
                                            (k_lin): Linear(in_features=1024, out_features=1024, bias=True)
                                            (v_lin): Linear(in_features=1024, out_features=1024, bias=True)
                                            (out_lin): ModuleList(
                                              (0): Linear(in_features=1024, out_features=1024, bias=True)
                                              (1): Linear(in_features=1024, out_features=1024, bias=True)
                                            )
                                          )
                                        )
                                        (pred_layer): PredLayer(
                                          (proj): Linear(in_features=1024, out_features=60408, bias=True)
                                        )
                                      )
INFO - 06/08/22 10:26:55 - 0:03:21 - Number of parameters (encoder): 138155000
INFO - 06/08/22 10:26:55 - 0:03:21 - Number of parameters (decoder): 169655288
INFO - 06/08/22 15:39:32 - 0:00:00 - ============ Initialized logger ============
INFO - 06/08/22 15:39:32 - 0:00:00 - ae_steps: []
…
