…
INFO - 05/30/22 15:15:30 - 0:00:05 - Monolingual data   -  test -           en:      2999
INFO - 05/30/22 15:15:30 - 0:00:05 - Parallel data      - valid -        de-en:      3000
INFO - 05/30/22 15:15:30 - 0:00:05 - Parallel data      -  test -        de-en:      2999

INFO - 05/30/22 15:15:33 - 0:00:08 - Reloading encoder from F:/project/UNMT/LM/CBD/mass_ft_ende_1024.pth ...
INFO - 05/30/22 15:15:36 - 0:00:11 - Reloading decoder from F:/project/UNMT/LM/CBD/mass_ft_ende_1024.pth ...
DEBUG - 05/30/22 15:15:38 - 0:00:12 - Encoder: TransformerModel(
                                        (position_embeddings): Embedding(512, 1024)
                                        (lang_embeddings): Embedding(2, 1024)
                                        (embeddings): Embedding(60408, 1024, padding_idx=2)
                                        (layer_norm_emb): LayerNorm((1024,), eps=1e-12, elementwise_affine=True)
                                        (attentions): ModuleList(
                                          (0): MultiHeadAttention(
                                            (q_lin): Linear(in_features=1024, out_features=1024, bias=True)
                                            (k_lin): Linear(in_features=1024, out_features=1024, bias=True)
                                            (v_lin): Linear(in_features=1024, out_features=1024, bias=True)
                                            (out_lin): Linear(in_features=1024, out_features=1024, bias=True)
                                          )
                                          (1): MultiHeadAttention(
                                            (q_lin): Linear(in_features=1024, out_features=1024, bias=True)
                                            (k_lin): Linear(in_features=1024, out_features=1024, bias=True)
                                            (v_lin): Linear(in_features=1024, out_features=1024, bias=True)
                                            (out_lin): Linear(in_features=1024, out_features=1024, bias=True)
                                          )
                                          (2): MultiHeadAttention(
                                            (q_lin): Linear(in_features=1024, out_features=1024, bias=True)
                                            (k_lin): Linear(in_features=1024, out_features=1024, bias=True)
                                            (v_lin): Linear(in_features=1024, out_features=1024, bias=True)
                                            (out_lin): Linear(in_features=1024, out_features=1024, bias=True)
                                          )
                                          (3): MultiHeadAttention(
                                            (q_lin): Linear(in_features=1024, out_features=1024, bias=True)
                                            (k_lin): Linear(in_features=1024, out_features=1024, bias=True)
                                            (v_lin): Linear(in_features=1024, out_features=1024, bias=True)
                                            (out_lin): Linear(in_features=1024, out_features=1024, bias=True)
                                          )
                                          (4): MultiHeadAttention(
                                            (q_lin): Linear(in_features=1024, out_features=1024, bias=True)
                                            (k_lin): Linear(in_features=1024, out_features=1024, bias=True)
                                            (v_lin): Linear(in_features=1024, out_features=1024, bias=True)
                                            (out_lin): Linear(in_features=1024, out_features=1024, bias=True)
                                          )
                                          (5): MultiHeadAttention(
                                            (q_lin): Linear(in_features=1024, out_features=1024, bias=True)
                                            (k_lin): Linear(in_features=1024, out_features=1024, bias=True)
                                            (v_lin): Linear(in_features=1024, out_features=1024, bias=True)
                                            (out_lin): Linear(in_features=1024, out_features=1024, bias=True)
                                          )
                                        )
                                        (layer_norm1): ModuleList(
                                          (0): LayerNorm((1024,), eps=1e-12, elementwise_affine=True)
                                          (1): LayerNorm((1024,), eps=1e-12, elementwise_affine=True)
                                          (2): LayerNorm((1024,), eps=1e-12, elementwise_affine=True)
                                          (3): LayerNorm((1024,), eps=1e-12, elementwise_affine=True)
                                          (4): LayerNorm((1024,), eps=1e-12, elementwise_affine=True)
                                          (5): LayerNorm((1024,), eps=1e-12, elementwise_affine=True)
                                        )
                                        (ffns): ModuleList(
                                          (0): TransformerFFN(
                                            (lin1): Linear(in_features=1024, out_features=4096, bias=True)
                                            (lin2): Linear(in_features=4096, out_features=1024, bias=True)
                                          )
                                          (1): TransformerFFN(
                                            (lin1): Linear(in_features=1024, out_features=4096, bias=True)
                                            (lin2): Linear(in_features=4096, out_features=1024, bias=True)
                                          )
                                          (2): TransformerFFN(
                                            (lin1): Linear(in_features=1024, out_features=4096, bias=True)
                                            (lin2): Linear(in_features=4096, out_features=1024, bias=True)
                                          )
                                          (3): TransformerFFN(
                                            (lin1): Linear(in_features=1024, out_features=4096, bias=True)
                                            (lin2): Linear(in_features=4096, out_features=1024, bias=True)
                                          )
                                          (4): TransformerFFN(
                                            (lin1): Linear(in_features=1024, out_features=4096, bias=True)
                                            (lin2): Linear(in_features=4096, out_features=1024, bias=True)
                                          )
                                          (5): TransformerFFN(
                                            (lin1): Linear(in_features=1024, out_features=4096, bias=True)
                                            (lin2): Linear(in_features=4096, out_features=1024, bias=True)
                                          )
                                        )
                                        (layer_norm2): ModuleList(
                                          (0): LayerNorm((1024,), eps=1e-12, elementwise_affine=True)
                                          (1): LayerNorm((1024,), eps=1e-12, elementwise_affine=True)
                                          (2): LayerNorm((1024,), eps=1e-12, elementwise_affine=True)
                                          (3): LayerNorm((1024,), eps=1e-12, elementwise_affine=True)
                                          (4): LayerNorm((1024,), eps=1e-12, elementwise_affine=True)
                                          (5): LayerNorm((1024,), eps=1e-12, elementwise_affine=True)
                                        )
                                        (pred_layer): PredLayer(
                                          (proj): Linear(in_features=1024, out_features=60408, bias=True)
                                        )
                                      )
DEBUG - 05/30/22 15:15:38 - 0:00:12 - Decoder: TransformerModel(
                                        (position_embeddings): Embedding(512, 1024)
                                        (lang_embeddings): Embedding(2, 1024)
                                        (embeddings): Embedding(60408, 1024, padding_idx=2)
                                        (layer_norm_emb): LayerNorm((1024,), eps=1e-12, elementwise_affine=True)
                                        (attentions): ModuleList(
                                          (0): MultiHeadAttention(
                                            (q_lin): Linear(in_features=1024, out_features=1024, bias=True)
                                            (k_lin): Linear(in_features=1024, out_features=1024, bias=True)
                                            (v_lin): Linear(in_features=1024, out_features=1024, bias=True)
                                            (out_lin): Linear(in_features=1024, out_features=1024, bias=True)
                                          )
                                          (1): MultiHeadAttention(
                                            (q_lin): Linear(in_features=1024, out_features=1024, bias=True)
                                            (k_lin): Linear(in_features=1024, out_features=1024, bias=True)
                                            (v_lin): Linear(in_features=1024, out_features=1024, bias=True)
                                            (out_lin): Linear(in_features=1024, out_features=1024, bias=True)
                                          )
                                          (2): MultiHeadAttention(
                                            (q_lin): Linear(in_features=1024, out_features=1024, bias=True)
                                            (k_lin): Linear(in_features=1024, out_features=1024, bias=True)
                                            (v_lin): Linear(in_features=1024, out_features=1024, bias=True)
                                            (out_lin): Linear(in_features=1024, out_features=1024, bias=True)
                                          )
                                          (3): MultiHeadAttention(
                                            (q_lin): Linear(in_features=1024, out_features=1024, bias=True)
                                            (k_lin): Linear(in_features=1024, out_features=1024, bias=True)
                                            (v_lin): Linear(in_features=1024, out_features=1024, bias=True)
                                            (out_lin): Linear(in_features=1024, out_features=1024, bias=True)
                                          )
                                          (4): MultiHeadAttention(
                                            (q_lin): Linear(in_features=1024, out_features=1024, bias=True)
                                            (k_lin): Linear(in_features=1024, out_features=1024, bias=True)
                                            (v_lin): Linear(in_features=1024, out_features=1024, bias=True)
                                            (out_lin): Linear(in_features=1024, out_features=1024, bias=True)
                                          )
                                          (5): MultiHeadAttention(
                                            (q_lin): Linear(in_features=1024, out_features=1024, bias=True)
                                            (k_lin): Linear(in_features=1024, out_features=1024, bias=True)
                                            (v_lin): Linear(in_features=1024, out_features=1024, bias=True)
                                            (out_lin): Linear(in_features=1024, out_features=1024, bias=True)
                                          )
                                        )
                                        (layer_norm1): ModuleList(
                                          (0): LayerNorm((1024,), eps=1e-12, elementwise_affine=True)
                                          (1): LayerNorm((1024,), eps=1e-12, elementwise_affine=True)
                                          (2): LayerNorm((1024,), eps=1e-12, elementwise_affine=True)
                                          (3): LayerNorm((1024,), eps=1e-12, elementwise_affine=True)
                                          (4): LayerNorm((1024,), eps=1e-12, elementwise_affine=True)
                                          (5): LayerNorm((1024,), eps=1e-12, elementwise_affine=True)
                                        )
                                        (ffns): ModuleList(
                                          (0): TransformerFFN(
                                            (lin1): Linear(in_features=1024, out_features=4096, bias=True)
                                            (lin2): Linear(in_features=4096, out_features=1024, bias=True)
                                          )
                                          (1): TransformerFFN(
                                            (lin1): Linear(in_features=1024, out_features=4096, bias=True)
                                            (lin2): Linear(in_features=4096, out_features=1024, bias=True)
                                          )
                                          (2): TransformerFFN(
                                            (lin1): Linear(in_features=1024, out_features=4096, bias=True)
                                            (lin2): Linear(in_features=4096, out_features=1024, bias=True)
                                          )
                                          (3): TransformerFFN(
                                            (lin1): Linear(in_features=1024, out_features=4096, bias=True)
                                            (lin2): Linear(in_features=4096, out_features=1024, bias=True)
                                          )
                                          (4): TransformerFFN(
                                            (lin1): Linear(in_features=1024, out_features=4096, bias=True)
                                            (lin2): Linear(in_features=4096, out_features=1024, bias=True)
                                          )
                                          (5): TransformerFFN(
                                            (lin1): Linear(in_features=1024, out_features=4096, bias=True)
                                            (lin2): Linear(in_features=4096, out_features=1024, bias=True)
                                          )
                                        )
                                        (layer_norm2): ModuleList(
                                          (0): LayerNorm((1024,), eps=1e-12, elementwise_affine=True)
                                          (1): LayerNorm((1024,), eps=1e-12, elementwise_affine=True)
                                          (2): LayerNorm((1024,), eps=1e-12, elementwise_affine=True)
                                          (3): LayerNorm((1024,), eps=1e-12, elementwise_affine=True)
                                          (4): LayerNorm((1024,), eps=1e-12, elementwise_affine=True)
                                          (5): LayerNorm((1024,), eps=1e-12, elementwise_affine=True)
                                        )
                                        (layer_norm15): ModuleList(
                                          (0): LayerNorm((1024,), eps=1e-12, elementwise_affine=True)
                                          (1): LayerNorm((1024,), eps=1e-12, elementwise_affine=True)
                                          (2): LayerNorm((1024,), eps=1e-12, elementwise_affine=True)
                                          (3): LayerNorm((1024,), eps=1e-12, elementwise_affine=True)
                                          (4): LayerNorm((1024,), eps=1e-12, elementwise_affine=True)
                                          (5): LayerNorm((1024,), eps=1e-12, elementwise_affine=True)
                                        )
                                        (encoder_attn): ModuleList(
                                          (0): MultiHeadAttention(
                                            (q_lin): Linear(in_features=1024, out_features=1024, bias=True)
                                            (k_lin): Linear(in_features=1024, out_features=1024, bias=True)
                                            (v_lin): Linear(in_features=1024, out_features=1024, bias=True)
                                            (out_lin): ModuleList(
                                              (0): Linear(in_features=1024, out_features=1024, bias=True)
                                              (1): Linear(in_features=1024, out_features=1024, bias=True)
                                            )
                                          )
                                          (1): MultiHeadAttention(
                                            (q_lin): Linear(in_features=1024, out_features=1024, bias=True)
                                            (k_lin): Linear(in_features=1024, out_features=1024, bias=True)
                                            (v_lin): Linear(in_features=1024, out_features=1024, bias=True)
                                            (out_lin): ModuleList(
                                              (0): Linear(in_features=1024, out_features=1024, bias=True)
                                              (1): Linear(in_features=1024, out_features=1024, bias=True)
                                            )
                                          )
                                          (2): MultiHeadAttention(
                                            (q_lin): Linear(in_features=1024, out_features=1024, bias=True)
                                            (k_lin): Linear(in_features=1024, out_features=1024, bias=True)
                                            (v_lin): Linear(in_features=1024, out_features=1024, bias=True)
                                            (out_lin): ModuleList(
                                              (0): Linear(in_features=1024, out_features=1024, bias=True)
                                              (1): Linear(in_features=1024, out_features=1024, bias=True)
                                            )
                                          )
                                          (3): MultiHeadAttention(
                                            (q_lin): Linear(in_features=1024, out_features=1024, bias=True)
                                            (k_lin): Linear(in_features=1024, out_features=1024, bias=True)
                                            (v_lin): Linear(in_features=1024, out_features=1024, bias=True)
                                            (out_lin): ModuleList(
                                              (0): Linear(in_features=1024, out_features=1024, bias=True)
                                              (1): Linear(in_features=1024, out_features=1024, bias=True)
                                            )
                                          )
                                          (4): MultiHeadAttention(
                                            (q_lin): Linear(in_features=1024, out_features=1024, bias=True)
                                            (k_lin): Linear(in_features=1024, out_features=1024, bias=True)
                                            (v_lin): Linear(in_features=1024, out_features=1024, bias=True)
                                            (out_lin): ModuleList(
                                              (0): Linear(in_features=1024, out_features=1024, bias=True)
                                              (1): Linear(in_features=1024, out_features=1024, bias=True)
                                            )
                                          )
                                          (5): MultiHeadAttention(
                                            (q_lin): Linear(in_features=1024, out_features=1024, bias=True)
                                            (k_lin): Linear(in_features=1024, out_features=1024, bias=True)
                                            (v_lin): Linear(in_features=1024, out_features=1024, bias=True)
                                            (out_lin): ModuleList(
                                              (0): Linear(in_features=1024, out_features=1024, bias=True)
                                              (1): Linear(in_features=1024, out_features=1024, bias=True)
                                            )
                                          )
                                        )
                                        (pred_layer): PredLayer(
                                          (proj): Linear(in_features=1024, out_features=60408, bias=True)
                                        )
                                      )
INFO - 05/30/22 15:15:38 - 0:00:12 - Number of parameters (encoder): 138023928
INFO - 05/30/22 15:15:38 - 0:00:12 - Number of parameters (decoder): 169524216
INFO - 05/30/22 15:16:36 - 0:00:00 - ============ Initialized logger ============
INFO - 05/30/22 15:16:36 - 0:00:00 - ae_steps: []
…
